deprecated/gear/model.pth (torch, 26292 bytes, 6 tensors)

linear_relu_stack.0.weight f4 [64, 24]
000000 35 4f d4 3d 62 43 29 be 3c bb 52 be e2 98 91 bd
       0.1036667 -0.16529611 -0.20579237 -0.07109238
000010 a9 f2 a9 be 03 50 50 bc dd b7 2a be 9c d4 51 be
       -0.33192948 -0.012714389 -0.16671701 -0.2049126
000020 9b d4 18 bd b6 48 42 3e fb 8c 20 bd 48 ba 0b be
       -0.03731213 0.1897305 -0.03919695 -0.1364528
000030 1a d3 50 bd 6d 1e 93 bd 1a 1d c1 bd 29 6d e6 3c
       -0.050982572 -0.07183538 -0.09429379 0.028128223
000040 fc 85 e0 3e 0e 95 d6 3d df 46 81 bb d6 4b ea bd
       0.43852222 0.10477649 -0.003945216 -0.11440246
000050 23 61 ce 3d 07 cd 73 3c 15 96 db be 93 03 11 bf
       0.10077121 0.014880425 -0.4288794 -0.5664608
000060 49 1a 6f 3d 0a 77 7a be ef ec e1 bd 81 10 2b 3d
       0.058374677 -0.24459472 -0.110315196 0.041763786
000070 0d a2 26 be fb 91 be be 20 21 b1 be 7e 25 12 bd
       -0.16272755 -0.3722075 -0.34595585 -0.035680287
000080 03 25 be 3d d2 0f 70 3e 86 d3 84 be ab 13 71 be
       0.09284403 0.23443535 -0.2594263 -0.23542659
000090 0b 98 90 be 5e be f5 bc 7e aa 57 be ba 13 7f bd
       -0.28241 -0.029998 -0.21061131 -0.062274672
0000a0 58 7c dc 3e 96 04 99 3d 45 06 5d ba 31 61 05 be
       0.43063617 0.07471578 -0.0008431415 -0.13025357
0000b0 55 01 7c 3e cb d9 de be 65 57 96 be 71 3d 3e bf
       0.24609883 -0.43525538 -0.29363552 -0.743125
0000c0 af 71 ee bd 43 3e bf 3c c0 eb f7 bd cb 01 19 3d
       -0.11642777 0.023345118 -0.121055126 0.037355226
0000d0 7d ab a6 3c 56 16 2d be 82 53 a5 3b 37 02 3a 3d
       0.020345444 -0.16903052 0.0050453553 0.04541227
0000e0 e8 63 a7 bd b8 02 2b be 45 56 7f be 27 d5 bd bd
       -0.081733525 -0.16700256 -0.24935253 -0.09269171
0000f0 34 63 c2 bc be 36 b4 bd 74 aa fd 3d 37 68 6a 3e
       -0.023728944 -0.08799504 0.12386027 0.22891317
000100 55 db f7 bd 87 ad 8b 3c 89 7e ec 3d f2 4e 37 3d
       -0.12102381 0.017050518 0.11547572 0.044753022
000110 15 dc 9d 3c 2b 2e f4 3c 43 8c fc bd fb 3f 2e 3d
       0.019269982 0.02980717 -0.1233144 0.042541485
000120 aa 45 07 3e 3e 46 83 3e 0f 9d 54 3e 11 c0 a9 3d
       0.13210168 0.25639528 0.20763038 0.08288587
000130 a5 b8 d6 3d 95 53 f2 bd 41 e1 32 be b0 b1 4f be
       0.10484437 -0.11832348 -0.1746874 -0.20282626
000140 cb 14 9d 3e 60 52 3f 3e 18 bc 16 be de 2f d9 3d
       0.30679926 0.18683767 -0.1472019 0.10604833
000150 6e e8 82 3e 3d b4 a0 3e ea 5f 89 3e 57 b2 61 3e
       0.25567955 0.3138751 0.2683099 0.22040688
000160 be 6d e3 bd a0 4a bb bd 80 12 56 3e 03 ad bd 3d
       -0.11104916 -0.09145093 0.20905495 0.09261515
000170 26 d7 ec bd 80 1b 67 3e db 6c 08 3e 90 a4 7f 3e
       -0.11564474 0.22569084 0.13322775 0.2496512
000180 09 56 0e be 73 34 9c 3d f8 21 01 be 58 00 24 3e
       -0.13900007 0.076271914 -0.12610614 0.16015756
000190 2f 7f 68 bc 69 15 04 3e 73 6c 3b bd 62 ab bf 3d
       -0.014190479 0.12898792 -0.045757722 0.093588606
0001a0 aa c3 58 bd f0 f0 92 3d e7 fc 1c be 42 5a 5d 3d
       -0.052920975 0.071748614 -0.1533085 0.054041155
0001b0 09 2c 32 be ae 2c 97 be e3 f5 a9 be d8 86 d6 3d
       -0.1739961 -0.29526275 -0.3319541 0.10474938
0001c0 09 a4 c5 bd af 6c 33 3e d0 f5 8f 3e dd 33 4c be
       -0.09650428 0.17521928 0.28117228 -0.1994166
0001d0 74 78 55 be ad 84 d1 bc 62 36 2e be 02 02 83 3e
       -0.2084673 -0.02557596 -0.17012933 0.2558747
0001e0 2d a7 92 be 13 a3 19 be c7 f6 21 be 73 d5 6a bd
       -0.2864317 -0.15003614 -0.15816794 -0.057332467
0001f0 96 b4 7c 3e 58 56 ab 3e b4 05 cf 3e 9b e1 b5 3e
       0.24678263 0.33464313 0.4043404 0.35523686
000200 b8 9c cf 3e 4f c8 b4 bd e1 79 f0 3a ab c6 99 3e
       0.40549254 -0.08827268 0.001834687 0.30034384
000210 07 fa 2f 3e 53 f3 40 3e 14 5e 53 3e 37 c3 64 3e
       0.17185222 0.18842821 0.20641357 0.22340094
000220 c9 03 0e bf 8e 8f 55 be e4 82 e6 3b b0 3f 0e be
       -0.55474526 -0.20855543 0.0070346463 -0.13891482
000230 f0 1b 21 bc 35 83 3c 3d 9f 23 45 3d 81 1c e5 3e
       -0.009833321 0.046023566 0.048129674 0.4474831
000240 ff 9d 66 3e a7 1c dd bb 40 2b ed bd f5 84 1f 3e
       0.22521208 -0.0067478004 -0.11580515 0.15578063
000250 2f cb 1b 3e d7 a7 ce 3c b8 2b 19 bd 71 f0 55 3e
       0.15214227 0.025226517 -0.03739521 0.20892502
000260 e0 8f 46 3e df 25 c1 bd ac f9 7a 3e 70 36 49 3e
       0.19390821 -0.094310515 0.24509305 0.19649673
000270 b9 71 4d bd 43 f6 85 3d 97 c7 24 be 23 09 24 bd
       -0.050157283 0.06541111 -0.16091762 -0.040047776
000280 a2 1d 89 3d 76 56 8f bd b5 79 30 be 03 9d d0 bd
       0.06695105 -0.06998913 -0.17233928 -0.101861976
000290 47 d0 9f bd a3 02 47 bd 14 92 96 3c 39 98 43 3e
       -0.078033976 -0.0485865 0.018380202 0.19101037
0002a0 c3 f0 9e bd b3 5e 1c be ad 64 a8 39 aa 70 e8 3d
       -0.077607654 -0.152705 0.00032118466 0.11349614
0002b0 6c 40 c1 3d 58 03 41 be ec f4 07 bd 11 fa f5 bd
       0.094361156 -0.18848932 -0.03319256 -0.12010587
0002c0 42 90 5a bd 6b c3 c6 3d a0 51 35 be 4d b3 75 3d
       -0.05336023 0.09705242 -0.17706919 0.059985448
0002d0 95 83 c6 3d fe f8 37 bc 80 9b 56 be 21 6d 11 be
       0.09693066 -0.011228798 -0.20957756 -0.14201786
0002e0 b3 db 6e bd 39 cd 82 be 00 8c f6 3d 9a a5 3f be
       -0.05831499 -0.25547197 0.12038422 -0.18715516
0002f0 34 69 7b be b2 5d 87 be 45 19 ae bd e8 b5 06 3e
       -0.2455185 -0.2643867 -0.085009135 0.13155329
000300 2f c5 aa be 67 2d e6 3d 2f 17 09 be 4c 8f 27 3d
       -0.33353564 0.112391286 -0.1338775 0.040908143
000310 d1 7b 33 bd 6c 32 73 be af c9 96 3d fe 8d 97 3d
       -0.043819252 -0.23749703 0.07362687 0.0740013
000320 28 fc 48 3e 35 7b 5a 3d e4 bf 64 be 69 20 c2 3d
       0.1962744 0.053340156 -0.22338825 0.09478838
000330 de dc c4 bd 83 2a e8 bc bd 79 b8 be f5 b9 9a be
       -0.096124396 -0.028340584 -0.3603038 -0.3022
000340 ff ea af be 85 24 69 be f3 48 9e 3c 6d 71 55 be
       -0.34358975 -0.22767837 0.019321894 -0.2084405
000350 ca c6 4a bd c6 be 46 bd 06 95 d4 bd 33 b8 5b be
       -0.049505986 -0.04852178 -0.103799865 -0.21456985
000360 2b 40 6b be 63 c3 eb bd 76 6c 4b 3d ed 8a 13 3e
       -0.22973697 -0.115118764 0.049663983 0.14408465
000370 ea ec 9c 3d 61 ad 83 bd f9 0d 7a 3d c3 92 7d be
       0.07662375 -0.06429554 0.06104848 -0.24763016
000380 18 1e 31 be e6 26 be 3d 13 a1 36 be 2d 77 d1 3c
       -0.17296636 0.09284763 -0.17834882 0.025569523
000390 0c a1 46 be f4 80 e9 bd e7 ad d1 bd 69 b3 1d 3e
       -0.19397372 -0.11401549 -0.10238247 0.15400471
0003a0 01 28 c5 3c ab bc 21 3e 15 97 26 3e 92 70 25 3e
       0.024066927 0.15794627 0.1626857 0.16156223
0003b0 de 13 76 3d dd 33 58 bd 1c 42 f8 bc 49 c4 e6 3c
       0.06007754 -0.052783836 -0.03030496 0.028169768
0003c0 9e 14 d6 3d 33 b0 29 be 89 cd 21 3e f6 8c 17 bd
       0.10453151 -0.16571121 0.15801062 -0.036999665
0003d0 5a b0 12 be 42 ab a9 bd db be 55 3e 9a 7f 63 3e
       -0.14325085 -0.08284618 0.20873587 0.22216645
0003e0 77 1a 4c be 01 a1 61 3e f4 93 33 3e 0d cf 4e 3e
       -0.1993197 0.22034074 0.17536908 0.20196171
0003f0 c9 9a 77 3e 45 f2 48 bb 9d 3e 33 3e 5c 28 1c 3e
       0.2418014 -0.0030661982 0.17504354 0.15249771

linear_relu_stack.0.bias f4 [64]
000000 bb 1e ed ba 85 b2 ac 3e 3f c9 55 3d cc 3c 5e 3e
       -0.0018090823 0.3372995 0.052193876 0.2170288
000010 69 a0 c8 bd d6 d2 d4 bd f1 d4 02 3e 58 10 77 bd
       -0.09796221 -0.10391776 0.12776543 -0.06031832
000020 c7 a0 f5 3d 4b 39 89 3e 02 34 1d 3e d1 18 3c 3e
       0.119935565 0.26801524 0.1535187 0.18368842
000030 af a8 90 3d 4e c1 04 3d c9 2d 40 be ca a6 a1 3e
       0.07063424 0.032410912 -0.18767466 0.31572562
000040 7a 7f 23 be 13 dc 64 3e e4 44 88 bd a4 9e 81 3d
       -0.15966597 0.22349577 -0.06653765 0.063290864
000050 e9 73 ac bd 99 91 2c 3d a6 fc 2f be 5c 82 62 3e
       -0.084205456 0.04213104 -0.17186221 0.2212004
000060 17 7f 91 3e 49 ce 82 3e 3c 53 24 3e 79 aa 33 3e
       0.28417274 0.25548008 0.16047376 0.17545499
000070 12 a8 ba 3e 9f 22 06 3e 32 04 c5 be 4a 50 4d bd
       0.36456352 0.13099144 -0.38479763 -0.050125398
000080 db aa b7 bd 3e 90 1c 3d 0e bd 00 3e 31 5b ef bd
       -0.08968135 0.038223498 0.12572119 -0.11687315
000090 e7 bb a5 be 22 d8 23 be ad da 99 3d 03 92 6b 3e
       -0.3236992 -0.16000417 0.07512412 0.23004918
0000a0 71 3f 11 be 90 d6 90 be 81 e9 f5 bd 7e 31 0d bf
       -0.14184357 -0.28288698 -0.12007428 -0.55153644
0000b0 b1 87 f8 bd d7 2f 10 3b 57 0e d6 3d 43 fb 0c 3e
       -0.12135256 0.002200117 0.10451954 0.13767724
0000c0 b0 5d 09 bd ad 9c ac 3e 99 ca 0d be 3c e9 64 3e
       -0.033536613 0.33713284 -0.13846816 0.22354597
0000d0 b3 22 73 be 2d ea 07 bd b3 33 1b bf 77 75 fb 3c
       -0.23743705 -0.03318231 -0.6062576 0.03069566
0000e0 a8 46 94 be 14 d6 08 be bb d9 25 3e 15 ba 63 bd
       -0.28960156 -0.13362914 0.16196339 -0.055597384
0000f0 ec 99 9b 3d 88 81 b4 bd dd 4e d1 bd 57 13 51 bb
       0.07597718 -0.088137686 -0.1022012 -0.0031902397

linear_relu_stack.2.weight f4 [64, 64]
000000 62 53 14 3d c5 fb fc 3d 02 e3 d2 3d b4 ca 64 3e
       0.036212333 0.12352709 0.102972046 0.2234295
000010 d7 b7 07 3e dd e0 92 3e c3 ab 7d bd 45 cb 6f 3e
       0.13253723 0.28687182 -0.061931383 0.23417385
000020 57 1a 17 3e e5 be 11 3e 4e 25 2f 3e 0e 14 48 3e
       0.14756142 0.14232977 0.17104074 0.195389
000030 64 ad f7 3c 6b ce 7e bc 11 f0 10 be 47 e9 30 3e
       0.030234046 -0.015552144 -0.14154078 0.17276488
000040 37 16 f5 3d e0 16 cd 3d 0c 47 bd bd 17 11 a0 3d
       0.11967128 0.10014129 -0.09242067 0.0781576
000050 76 c7 5b bd 1e 00 39 bc 16 31 8a bd 15 7b 1f bd
       -0.053657018 -0.011291532 -0.06747644 -0.03893574
000060 c5 67 4a 3e d9 ec 91 3d 9a 9c 08 be 21 c9 76 be
       0.19766147 0.07125253 -0.13340989 -0.24100162
000070 f1 a9 85 3e 8f 6f b5 bd cd 3c 28 be 94 e8 be bd
       0.26106218 -0.08859169 -0.16429444 -0.093217045
000080 ad 55 5c 3d 14 e2 a3 bc 95 d9 86 3d 27 f4 34 bc
       0.053792644 -0.020005263 0.06584469 -0.011044539
000090 76 a0 a5 be 3d 6c 91 bd cd 38 87 3d 51 98 48 3e
       -0.32348984 -0.07100723 0.06602631 0.19589354
0000a0 cf 35 9e 3e be 2b 47 be 14 15 36 bd 9e ba 56 be
       0.30900428 -0.1945028 -0.044453695 -0.20969626
0000b0 4d 13 6b 3d 16 f4 b4 3d 73 f1 bf 3d 70 ae 23 3e
       0.057391454 0.08835618 0.09372225 0.15984511
0000c0 23 99 59 bd d3 56 f8 3d a3 f7 96 be e2 e5 40 3e
       -0.05312456 0.121259354 -0.29485807 0.18837693
0000d0 87 ab 47 bd 55 18 06 bd 0f 3f 8d 3d 64 00 75 3d
       -0.048747566 -0.03273805 0.06896793 0.059814826
0000e0 62 d0 d8 bd 00 8f 08 3e b8 a6 91 3c e3 43 f4 3d
       -0.10586621 0.133358 0.017779693 0.11927011
0000f0 a0 18 a8 3e 16 eb cc bc 00 b2 46 bd 4c 92 16 3e
       0.32831287 -0.025014441 -0.048509598 0.14704245
000100 52 e8 91 3d 66 58 91 3d 01 bc d7 3d 54 3a 87 3d
       0.0712439 0.07096939 0.10533906 0.06602922
000110 7d 15 c8 bc 1a 9b b5 bd e8 34 ec bc 19 5c b4 3d
       -0.024424309 -0.08867474 -0.028833821 0.08806629
000120 9b d9 e3 bc 30 ed 1d 3e e7 41 20 bd 5b 43 a7 3d
       -0.027813723 0.15422511 -0.03912535 0.08167144
000130 3f 93 e0 3b ed b0 da bb e8 c8 f0 bd ee 7f ef bd
       0.0068534906 -0.006673923 -0.1175707 -0.116943225
000140 45 57 ab ba 83 df 9f 3d 49 98 c7 3d 21 11 21 3c
       -0.0013072273 0.07806303 0.09745843 0.009830744
000150 fe 58 b9 3d 36 bc 09 3e d0 77 f4 bd 56 ac 9a bd
       0.09050177 0.13450703 -0.11936915 -0.07552402
000160 06 b3 9f bd 9a 29 88 3b 63 8e a6 bd e2 f3 1b bd
       -0.07797818 0.00415535 -0.08132627 -0.03807438
000170 c5 27 20 3d b1 27 0c 3e fb 76 c5 3d c7 b9 4b 3e
       0.039100427 0.13687016 0.09641834 0.19895087
000180 79 7c 0a 3e 4e 87 ce bd 42 fb 5e 3c 49 9f d7 3c
       0.13524045 -0.10084401 0.013609709 0.02632107
000190 63 da 7b 3e 34 6b aa bc ce 8e 84 bc ef be 2c bd
       0.24595027 -0.020803072 -0.016181376 -0.042174276
0001a0 83 78 ea 3d 32 b8 09 3e 24 7c 56 bd 73 4e 19 3e
       0.11448767 0.13449171 -0.052364483 0.14971332
0001b0 a5 91 fd 3d be bd 41 3d a7 c8 b2 bd e5 e5 0c 3d
       0.12381295 0.047300093 -0.08729678 0.034398932
0001c0 4e 2b c1 bd ba 41 3f 3c 50 a9 ce 3d 47 f9 ad bd
       -0.09432088 0.011673385 0.100908875 -0.084948115
0001d0 10 83 08 be d9 54 82 bd da b7 f3 bd ec 70 74 bc
       -0.13331246 -0.0636384 -0.11900301 -0.014919501
0001e0 d3 93 34 3d 80 8f ce bd 7a dc c9 3b 1a 87 ee bd
       0.04408629 -0.10085964 0.006160316 -0.11646862
0001f0 a0 8f fa 3c ad ea df 3d b1 2b 69 3d fc 6d 0f bd
       0.030586064 0.10933433 0.056926433 -0.035017
000200 8f 00 b6 bd 82 7b 92 3c 13 83 b1 3b 82 80 eb 3d
       -0.08886825 0.017881159 0.0054172366 0.1149912
000210 ad 3b c9 3d 8a d2 7b 3d 9a 34 32 3d e2 0b 9a bb
       0.098258354 0.061480083 0.043507196 -0.0047011236
000220 8a bb 3e 3e d9 9c a1 3d 2c f5 58 bd 61 02 1f bb
       0.18626228 0.078912444 -0.05296819 -0.0024262893
000230 4c 89 09 3e 6c 54 f4 3c 93 35 09 be f9 58 0f 3e
       0.13431281 0.029825412 -0.13399343 0.13998784
000240 9d c9 1b 3d a3 75 d3 3c 5e 7a 2d be 6b 0b dc 3d
       0.03803407 0.02581293 -0.1694121 0.10744365
000250 a3 75 0e 3d ba 1d 9f 3c 08 f9 ba bc 35 f6 aa 3d
       0.034780156 0.019423354 -0.022823825 0.083477415
000260 be a5 ed 3d ff 0a 0f 3c 4c e4 71 bd fc e4 10 bc
       0.116038784 0.008730649 -0.05905561 -0.008843657
000270 59 8f 55 3d 10 9a c7 3c b7 c1 15 be e6 bc a9 3b
       0.05213866 0.024365455 -0.14624678 0.005179989
000280 62 ad ec bd 9c 45 e2 3d 14 3c c6 3d cc 03 98 3d
       -0.11556508 0.11048433 0.09679428 0.07422599
000290 c0 b5 25 be 39 0c 99 3d fe d5 8c bd bd 4e de bc
       -0.16182613 0.074730344 -0.06876753 -0.027137155
0002a0 11 e2 54 bd 63 2f 68 be d5 b8 6b 3d 76 c4 0d be
       -0.051973406 -0.22674327 0.057549316 -0.13844475
0002b0 13 39 07 3e c1 47 da ba af 5f f9 3d 4a e8 b7 3d
       0.13205366 -0.0016653464 0.12176453 0.089798525
0002c0 77 a1 77 bd 53 69 93 3d 06 90 46 be 12 68 48 3e
       -0.06045672 0.071978234 -0.19390878 0.1957095
0002d0 f5 f5 31 bd 09 02 aa 3b e2 b6 d7 3d 12 5b aa 3d
       -0.043447454 0.005188231 0.10532929 0.083181515
0002e0 1d 33 92 3d a2 8a b9 bc 67 5e ab 3d 3f f4 2a 3e
       0.07138655 -0.022649113 0.08367615 0.16694735
0002f0 7e e4 05 3e c9 de 75 3c 40 9e 89 3d 2e d7 04 3e
       0.13075444 0.015006729 0.06719637 0.1297271
000300 b1 35 7a 3d 31 0e ee 3c 41 09 aa 3d bd 8b 1e bd
       0.06108636 0.029059501 0.08302546 -0.038707484
000310 64 46 c6 bd d0 66 ed bc c6 aa 9c bd 23 00 09 3d
       -0.09681395 -0.028979689 -0.0764976 0.033447396
000320 fe f8 ab 3c 6f 17 20 bd 6c 89 9d bc fb 2c 13 39
       0.020992752 -0.039084848 -0.019230567 0.00014035769
000330 9b 8f db 3d 86 b1 e1 3d 98 42 e8 bd c3 d2 a6 3d
       0.1072075 0.11020188 -0.11340827 0.08145668
000340 bf d8 48 3d 42 55 58 3d 3e 34 69 bb 0f 9d ed 3c
       0.04903483 0.052815683 -0.0035584117 0.029005555
000350 16 62 10 3d dc 21 e9 3d d8 6f 0b be e5 a8 42 bd
       0.035249792 0.11383411 -0.13616884 -0.04752435
000360 5d a4 a6 bd 5b 44 78 bd b9 8d d6 3c 01 85 b5 3d
       -0.081368186 -0.060612064 0.026190626 0.08863259
000370 2d 88 a7 bd e1 e9 a2 3d 69 3a 9a 3d ec 01 7f bd
       -0.0818027 0.07954765 0.07530672 -0.062257692
000380 6f fd c0 3c 9b 8e 45 bd 1d f4 03 3d b8 9f 77 bd
       0.023558347 -0.048231702 0.032215226 -0.060455054
000390 55 94 65 bd b8 bf a7 bd 14 4f ee bd 14 28 ff 3d
       -0.056049664 -0.08190864 -0.11636177 0.12458816
0003a0 47 23 9b bc 6c 09 d5 bc 9d 78 87 bd 92 32 a6 3d
       -0.01893772 -0.02600547 -0.06614802 0.08115114
0003b0 43 9a 95 bd 5d 91 5d bd 12 28 b0 bd 29 a0 d5 bd
       -0.07304814 -0.054093707 -0.08601393 -0.10430939
0003c0 c4 03 dd 3d e6 ad cc bd 86 0c 0b bd 5a 55 46 bc
       0.10791734 -0.09994106 -0.03394749 -0.01210531
0003d0 2f 8e 2b 3d 8c 84 04 3d 9f 10 07 be 14 c4 d7 3d
       0.041883644 0.03235297 -0.13189934 0.10535446
0003e0 df 79 ff bd 0d 27 b5 3c 46 3c 30 bc 55 31 09 bd
       -0.12474417 0.022113347 -0.010756558 -0.033494312
0003f0 98 87 95 3d a6 4f c7 3d 3a db cf bb cd 6e 26 bd
       0.07301253 0.097319886 -0.0063432725 -0.04063301

linear_relu_stack.2.bias f4 [64]
000000 dd 55 9d 3e 11 14 06 bd 73 92 78 3e ce 6b fe bc
       0.3072957 -0.03273398 0.24274616 -0.031057265
000010 3b ff 87 3e 0c 14 6d bc fe a0 18 3d a3 b6 06 3e
       0.26561913 -0.014470112 0.03726291 0.13155608
000020 9d 3f bc 3d 4f b3 79 3d 83 4d 8c 3e fc 95 76 bd
       0.09191821 0.060962018 0.27402887 -0.06020163
000030 e1 9d 89 3e de 38 2a 3c 31 11 bb bd e5 83 68 3d
       0.26878265 0.010389535 -0.091341384 0.05676641
000040 eb 70 58 bd 57 e0 8c 3d 75 ce 35 be 96 65 ef 3d
       -0.052842062 0.06878727 -0.17754538 0.11689298
000050 38 d8 ef 3e 4c ae 0c 3e 6b 5c 6c 3d 4c 5f 9f bd
       0.4684465 0.13738364 0.057705324 -0.07781848
000060 c3 1d f9 3d b3 48 89 3d 0f 20 0e bb 22 cc 91 bd
       0.1216388 0.067033194 -0.002168659 -0.07119013
000070 5b 30 53 3d cf 34 03 3e 2d 5c d2 3c dc 12 9b 3d
       0.051559787 0.12813114 0.025678718 0.075719565
000080 c5 56 0b be 73 76 0a 3e fb e5 24 3d 37 3c 5f bc
       -0.13607319 0.13521747 0.04025839 -0.013625196
000090 7a 0f 83 3d 6d 12 81 3e c9 ec 27 bd 66 3e fd b9
       0.06399436 0.2520937 -0.0409973 -0.0004830241
0000a0 1e a5 65 3d 44 6a 65 3d 20 d6 c4 bd e5 01 47 3d
       0.05606567 0.056009546 -0.096111536 0.04858579
0000b0 29 d3 0f 3e b7 c6 a7 bd c0 bf b8 3d 9d a7 64 bd
       0.14045395 -0.08192199 0.090209484 -0.05582391
0000c0 dc 2f 36 bd f5 3e e1 bd 30 8f 08 be 60 98 2f bb
       -0.044479236 -0.10998336 -0.13335872 -0.0026793703
0000d0 ee c4 e6 3d 9b c7 d2 3c e6 c0 a3 bd 93 97 fa 3d
       0.1126803 0.025729945 -0.07995777 0.12235942
0000e0 9b 6c ff bc 6c ff 94 bd 77 2e 87 3c a6 de 4e 3d
       -0.031179717 -0.0727528 0.016501648 0.050505303
0000f0 ea 4b 55 be 0d 40 2a 3b d0 b4 8c 3e a2 eb 9f 3d
       -0.2082974 0.0025978119 0.274817 0.07808615

linear_relu_stack.4.weight f4 [3, 64]
000000 d1 84 64 bf 45 6f a1 3e f8 96 04 bf 08 01 0a be
       -0.8926516 0.31530204 -0.5179286 -0.13476956
000010 38 be 22 bf de f0 04 bf 94 06 90 be 21 d1 e8 3e
       -0.635715 -0.51930034 -0.2813002 0.45472053
000020 1c 26 bd bd 6c 54 01 be 92 cc 53 be 60 57 0b be
       -0.092357844 -0.1262986 -0.20683506 -0.1360755
000030 e6 5a 05 3f a2 4a b7 bb e5 f1 5d 3e 98 c0 c3 3b
       0.52091825 -0.0055936137 0.21674307 0.0059738867
000040 79 d3 fc bd 22 20 18 3f 0d 4d 2e 3f 59 e5 80 be
       -0.12345023 0.5942403 0.6808632 -0.25174978
000050 f8 b9 83 bf 84 1e 3e 3e 54 ba ea 3e ed b7 ea 3d
       -1.0291128 0.18566328 0.45845282 0.11460862
000060 fc e3 5a be 83 0c 62 3d 5f 16 ce 3d d9 9f a6 3d
       -0.21376032 0.055187713 0.10062861 0.08135957
000070 79 62 56 be 5c a0 c2 be d9 bb 31 bd 8d 55 43 bf
       -0.20936002 -0.3801297 -0.043392036 -0.76302415
000080 8b 13 93 3e 56 ce 3e 3e 14 82 31 bd ee a8 9a 3d
       0.28725848 0.18633398 -0.043336943 0.07551752
000090 05 a9 94 3e f3 be 31 be 6e cc 7f 3d 36 d1 db ba
       0.29035202 -0.17357998 0.06245082 -0.0016770724
0000a0 f5 81 0b 3f 44 05 83 be 9e 9e d7 3d e1 de f3 be
       0.54495174 -0.25589955 0.10528301 -0.4763098
0000b0 a6 11 08 be 33 34 49 3f af 6d 5e 3e cf 3c a8 3d
       -0.13287982 0.78595275 0.21721528 0.08214723
0000c0 aa 63 a3 bd e9 5b c2 bd 21 d5 2a 3f de 5a 36 3e
       -0.07977994 -0.09490187 0.6673146 0.178081
0000d0 67 ff 96 3d ce da d8 be 7b c1 8f bd 6b 69 35 be
       0.07372933 -0.42354435 -0.07019325 -0.17715995
0000e0 fb 7d 9a bd f7 e8 0e 3f ae 30 04 3f ec 16 59 3e
       -0.0754356 0.55824226 0.5163678 0.2120015
0000f0 63 56 8f be c4 2b 05 be 32 ff b3 bd 27 fb 81 3e
       -0.27995595 -0.13004977 -0.08788909 0.25386927
000100 eb 90 f1 3e 71 c9 98 3d 05 b8 1e 3e 07 58 06 3e
       0.47180876 0.07460297 0.15499885 0.13119517
000110 be 71 81 3f 40 e4 0b be 8f 06 bf 3c 50 0e a3 bf
       1.0112836 -0.13661289 0.023318557 -1.2738743
000120 7b 9e 01 3d f0 ed 1a 3e ef e8 3b 3f 7a 65 a5 3c
       0.03164528 0.15129828 0.73402303 0.02018999
000130 b4 b7 0a 3f b7 dc 9b 3d 11 23 89 bd 7d f4 9d 3d
       0.5418656 0.076104574 -0.066961415 0.07712648
000140 47 eb 7c 3c ce 66 e4 3d a6 08 1e bf c8 17 7b 3e
       0.015436954 0.11152421 -0.61731946 0.2452079
000150 5b ec ac 3f 64 67 e9 bd 23 34 43 be f3 a4 d5 3d
       1.350963 -0.11396673 -0.19062857 0.10431852
000160 56 44 7b 3e 58 7a e0 3d 72 df dc bc 14 51 f7 3d
       0.24537787 0.10960835 -0.026962016 0.12076011
000170 89 73 1c 3f 3c 23 a7 3e ca 7d 44 3e e4 86 aa 3f
       0.6111379 0.3264407 0.1918861 1.3322415
000180 f7 1a ae be 73 2b 3f 3e 99 be b2 3d 46 f7 48 3d
       -0.34004948 0.18668918 0.0872776 0.049063943
000190 0a 5e 71 3d 01 cb 25 3f ea af 8f be c6 bc a2 3d
       0.058927573 0.64762884 -0.280639 0.07946162
0001a0 39 1e d0 be c9 3e 01 3f 4d ed f1 bd 64 8a 13 3f
       -0.40648058 0.5048643 -0.1181284 0.5763304
0001b0 ee 3d 65 3d 08 97 20 bf e4 08 3a bd 10 a2 91 bd
       0.055967264 -0.62730455 -0.045418635 -0.07110989
0001c0 b8 7a 96 3d 56 50 d6 bb 74 12 1d bf 84 4f 7a bd
       0.073476255 -0.0065403385 -0.6135628 -0.06111099
0001d0 ab 01 11 3e 62 56 00 3f 63 68 89 bc 53 ec 71 be
       0.14160793 0.5013181 -0.016773408 -0.23625307
0001e0 35 e9 07 3e 29 ca d1 be a1 8b a5 be d6 aa 70 be
       0.13272555 -0.40974548 -0.3233309 -0.23502669
0001f0 d8 3d 20 bf 4f 8e 76 bd cc c0 80 3f c9 d6 87 bd
       -0.62594366 -0.06019431 1.0058837 -0.06632764
000200 36 4a ab 3e 37 41 ba be 0d 3e a3 3e e0 c7 02 be
       0.33455056 -0.3637788 0.31883278 -0.12771559
000210 7b 37 c2 be f7 f7 3a 3f 68 b6 b3 3e 24 84 67 3f
       -0.37932953 0.73034614 0.35100102 0.90436006
000220 b7 b7 13 bd f3 88 97 be f2 a6 1a bf 53 f0 5b 3c
       -0.036063876 -0.2959667 -0.6041099 0.013423997
000230 f9 40 86 bf 39 d6 c9 bd 78 33 90 3b 7d 10 03 bd
       -1.0488578 -0.09855313 0.004400667 -0.031998146
000240 a3 63 35 3e 5f 87 3d bf ea e1 29 bc 33 54 31 3d
       0.1771379 -0.74034685 -0.0103688035 0.04329319
000250 da 81 8f be 18 a7 e3 3d bf 25 c1 be 95 1f b9 bd
       -0.28028756 0.11115855 -0.3772411 -0.09039227
000260 49 21 b9 3c 22 32 f5 bd 60 e0 f3 bc c6 50 cd bd
       0.02259888 -0.11972453 -0.029770076 -0.10025172
000270 a1 75 80 be 31 69 35 be 0c cb 59 3c 87 62 0c bf
       -0.25089744 -0.17715909 0.013293039 -0.5483784
000280 6f 68 e3 bd f2 46 a8 be 08 38 4d bd 49 74 ae bd
       -0.111039035 -0.32866627 -0.050102264 -0.085182734
000290 a7 98 42 be 32 93 a2 be d4 5b 31 bd 3e ef c8 3c
       -0.19003545 -0.31752926 -0.043300465 0.024528142
0002a0 93 a4 84 be 62 1d fa bc 70 a4 b6 bc 44 23 9d bd
       -0.2590681 -0.030531589 -0.022295207 -0.07672742
0002b0 85 53 13 bd 78 42 8a be 02 c3 1c be 8a 4f 69 bd
       -0.035968322 -0.27003837 -0.15308765 -0.05696062
0002c0 07 ad 82 bd 8d c2 61 bd c7 dd f2 bd 57 8d 4d be
       -0.063806586 -0.05511718 -0.11858707 -0.20073448
0002d0 46 88 8f 3c 8b 4f 30 bd ed 4b b1 bd f9 33 d9 3e
       0.017521035 -0.043044608 -0.0865706 0.42422464
0002e0 06 04 f9 bd 45 7e 7d be 81 33 d3 bd 4b db 15 bd
       -0.121589705 -0.24755199 -0.10312558 -0.036586087
0002f0 b3 c2 7c 3f 82 af 67 bd aa c3 85 bf 65 f7 44 3d
       0.9873459 -0.05656386 -1.0450337 0.048087496

linear_relu_stack.4.bias f4 [3]
000000 13 58 a7 be 91 ad ae 3e 7e 1f 22 3d
       -0.32684383 0.34116796 0.039580815
